layer {
  name: "Data1"
  type: "Data"
  top: "Data1"
  phase: TRAIN
  transform_param {
    mirror: false
    crop_size: 80
    mean_value: 128
  }
  data_param {
    source: "/data/wzheng/data/car_regression_80/img_gray_80_db/"
    batch_size: 256
    backend: LMDB
  }
}
layer {
  name: "Convolution1"
  type: "Convolution"
  bottom: "Data1"
  top: "Convolution1"
  convolution_param {
    num_output: 32
    pad: 1
    kernel_size: 3
    stride: 1
    weight_filler {
      type: "xavier"
    }
  }
}
layer {
  name: "ReLU1"
  type: "ReLU"
  bottom: "Convolution1"
  top: "Convolution1"
}
layer {
  name: "Pooling1"
  type: "Pooling"
  bottom: "Convolution1"
  top: "Pooling1"
  pooling_param {
    pool: MAX
    kernel_size: 3
    stride: 2
    pad: 1
  }
}
layer {
  name: "Convolution2"
  type: "Convolution"
  bottom: "Pooling1"
  top: "Convolution2"
  convolution_param {
    num_output: 32
    pad: 1
    kernel_size: 3
    stride: 2
    weight_filler {
      type: "xavier"
    }
  }
}
layer {
  name: "ReLU2"
  type: "ReLU"
  bottom: "Convolution2"
  top: "Convolution2"
}
layer {
  name: "Convolution3"
  type: "Convolution"
  bottom: "Convolution2"
  top: "Convolution3"
  convolution_param {
    num_output: 32
    pad: 1
    kernel_size: 3
    stride: 1
    weight_filler {
      type: "xavier"
    }
  }
}
layer {
  name: "ReLU3"
  type: "ReLU"
  bottom: "Convolution3"
  top: "Convolution3"
}
layer {
  name: "Pooling2"
  type: "Pooling"
  bottom: "Convolution3"
  top: "Pooling2"
  pooling_param {
    pool: MAX
    kernel_size: 3
    stride: 2
    pad: 1
  }
}
layer {
  name: "Convolution4"
  type: "Convolution"
  bottom: "Pooling2"
  top: "Convolution4"
  convolution_param {
    num_output: 32
    pad: 1
    kernel_size: 3
    stride: 1
    weight_filler {
      type: "xavier"
    }
  }
}
layer {
  name: "ReLU4"
  type: "ReLU"
  bottom: "Convolution4"
  top: "Convolution4"
}
layer {
  name: "Pooling3"
  type: "Pooling"
  bottom: "Convolution4"
  top: "Pooling3"
  pooling_param {
    pool: MAX
    kernel_size: 3
    stride: 2
    pad: 1
  }
}
layer {
  name: "InnerProduct1"
  type: "InnerProduct"
  bottom: "Pooling3"
  top: "InnerProduct1"
  inner_product_param {
    num_output: 9
    weight_filler {
      type: "xavier"
    }
  }
}
layer {
  name: "Data2"
  type: "Data"
  top: "Data2"
  phase: TRAIN
  data_param {
    source: "/data/wzheng/data/car_regression_80/label_gray_80_db/"
    batch_size: 256
    backend: LMDB
  }
}
layer {
  name: "EuclideanLoss1"
  type: "EuclideanLoss"
  bottom: "InnerProduct1"
  bottom: "Data2"
  top: "EuclideanLoss1"
}
layer {
  name: "Accuracy1"
  type: "Accuracy"
  bottom: "InnerProduct1"
  bottom: "Data2"
  top: "Accuracy1"
  phase: TEST
}
